Project-1/mc-project/app/src/main/assets/mnist_quad4.tflite (tflite, 39672 bytes, 6 tensors)

sequential_5/dense_5/BiasAdd/ReadVariableOp f4 [10]
0.063605174 0.2146008 -0.18491669 -0.034504253 -0.08921337 0.150271 -0.08446103 0.013309163
-0.04699172 -0.027638402
00000000: 6e43 823d 50c0 5b3e cd5a 3dbe 5554 0dbd
00000010: 80b5 b6bd a4e0 193e e8f9 acbd ad0e 5a3c
00000020: 647a 40bd ee69 e2bc

sequential_5/conv2d_11/BiasAdd/ReadVariableOp f4 [64]
-0.0054471255 -0.027803894 0.02538512 0.027534554 0.027675197 -0.036521953 -0.049046427 -0.03146535
-0.076160386 0.0013976077 0.07003906 0.042969465 0.015282054 -0.024385082 0.07327732 0.011387161
0.024000874 0.0645147 -0.00929921 0.0016059586 -0.0998671 -0.0075318525 -0.023531815 0.087319
-0.05491147 0.009318734 -0.018124875 -0.013383835 0.02210848 -0.05742114 0.02121459 0.041885305
-0.060748573 -0.012553891 -0.0075201206 -0.02781659 -0.03265605 0.026403574 -0.020458838 -0.03977559
-0.048807506 -0.06437063 -0.0040118797 -0.013259459 -0.041087963 -0.04344765 0.016690962 -0.009042243
0.050089564 -0.01371957 0.076891795 0.06828406 -0.022221971 -0.043777253 -0.035292268 0.017711747
-0.03666424 -0.07706843 -0.095267706 -0.09562344 -0.010675456 0.04633361 -0.028711291 0.0076804524
00000000: cd7d b2bb fec4 e3bc 75f4 cf3c 2590 e13c
00000010: 18b7 e23c 0b98 15bd e8e4 48bd d0e1 00bd
00000020: faf9 9bbd ef2f b73a a470 8f3d c000 303d
00000030: 9561 7a3c 39c3 c7bc 6b12 963d 3791 3a3c
00000040: 7b9d c43c 4820 843d b75b 18bc 077f d23a
00000050: 1f87 ccbd c2cd f6bb cbc5 c0bc 4ed4 b23d
00000060: d9ea 60bd 9aad 183c 9e7a 94bc df47 5bbc
00000070: d81c b53c 6e32 6bbd 38ca ad3c ed8f 2b3d
00000080: 7fd3 78bd d6ae 4dbc 586b f6bb 9edf e3bc
00000090: 5ac2 05bd 4f4c d83c 4b99 a7bc bbeb 22bd
000000a0: 61ea 47bd c0d4 83bd 1676 83bb 343e 59bc
000000b0: da4b 28bd 2af6 31bd 7cbb 883c ea25 14bc
000000c0: b72a 4d3d 0cc8 60bc 7279 9d3d 83d8 8b3d
000000d0: da0a b6bc c74f 33bd a08e 10bd 3a18 913c
000000e0: 3e2d 16bd 0ed6 9dbd b71b c3bd 39d6 c3bd
000000f0: 1ce8 2ebc 50c8 3d3d f133 ebbc 4eac fb3b

sequential_5/conv2d_10/BiasAdd/ReadVariableOp f4 [32]
0.037297163 -0.013367758 0.28904527 -0.029674167 0.029024351 0.00973308 -0.009453546 0.08405345
-0.0052212686 0.012573252 -0.08378346 -0.010267881 0.053288355 -0.0048445966 -0.009541236 -0.0043764533
-0.026889142 -0.008346278 -0.006745537 0.008685773 -0.0072046136 -0.03652157 -0.008819938 0.066883236
0.033391226 0.020859133 -0.013062297 0.064110674 -0.0027618217 0.038663767 -0.058606587 0.026013376
00000000: e9c4 183d 7104 5bbc befd 933e 3d17 f3bc
00000010: 7ac4 ed3c 7f77 1f3c 0ce3 1abc 3724 ac3d
00000020: 2d17 abbb 0b00 4e3c aa96 abbd 9d3a 28bc
00000030: e444 5a3d 6cbf 9ebb d852 1cbc 5a68 8fbb
00000040: 9e46 dcbc d4be 08bc aa09 ddbb c64e 0e3c
00000050: ae14 ecbb a497 15bd 8081 10bc 14fa 883d
00000060: 3dc5 083d c6e0 aa3c 3f03 56bc 754c 833d
00000070: aeff 34bb e65d 1e3d 760d 70bd 011a d53c

sequential_5/conv2d_10/Conv2D f4 [32, 3, 3, 1]
0.059865985 0.40455586 0.1562309 -0.49592096 0.23908092 0.08977771 -0.42563024 0.05366908
-0.15781929 0.2758362 -0.11027213 0.06376283 -0.006345287 -0.051982168 0.052580897 -0.27097648
0.06512285 0.053581566 -2.8495224 -0.17851147 -0.07970792 -0.24494806 0.1688754 0.17818587
0.057441834 0.03028346 0.21174386 0.008225618 -0.020641332 0.036116827 0.06021332 -0.18466699
0.024295324 0.14075993 -0.027065737 0.046099093 0.21023957 0.37976485 0.15970305 -0.24764055
0.13698429 0.10873699 -0.6537092 0.018875489 -0.089621514 0.46928355 -0.03572672 0.10957799
0.0045804954 -0.08091504 -0.065027274 -0.2472832 -0.028340377 0.052465174 0.44353807 -0.21477376
0.19691724 0.10396888 0.05759651 -0.016884143 -0.25750569 -0.11324119 -0.057666898 -0.69069135
-0.12570812 0.033238593 0.33039218 0.22789258 0.12304896 0.140979 0.077224225 -0.07139189
-0.55235183 0.24171291 0.16719861 -0.2730492 0.07116801 0.15820561 -0.009880446 0.06769291
0.2632375 0.55762285 0.032557018 -0.06514841 -0.3199493 -0.14630455 0.053457957 -0.045060065
0.1159859 0.032251336 -0.21340466 0.22138537 0.15330835 -0.21450204 -0.023613743 0.16041388
0.11657222 0.06759466 0.137585 0.20421705 -0.00473685 0.040464655 0.1866836 -0.306926
-0.08061559 0.17398019 -0.15578136 -0.046520002 -0.31495076 -0.2909494 -0.0993955 0.41146418
0.062370613 0.113193534 0.21067862 -0.0057678316 0.033275593 0.51713955 -0.14449358 -0.08892343
-0.04944447 -0.1950589 0.08326371 -0.07148121 0.066239655 0.09049311 0.36840603 0.19443803
-0.40272477 -0.103053875 -0.110421695 -0.5452232 -0.08400484 -0.21088518 -0.07641284 0.20642802
0.08139797 0.105249405 -0.19409236 -0.2146473 -0.046098232 0.10203508 0.04191662 0.08460695
0.23113385 0.054560646 0.15482569 0.08689476 -0.18039301 -0.10353459 0.07210838 -0.09717327
-0.23717315 0.18591882 -0.022497809 -0.053137638 -0.07344602 -0.13062714 0.07616345 -0.086246975
0.06433614 0.049622472 0.33403996 -0.33679095 -0.0020040853 -0.14256783 -0.089436926 -0.013350944
0.3380666 0.058960244 0.10679038 0.3515103 0.028802214 -0.51004696 0.046956252 0.04105025
-0.060595278 -0.52389044 -0.51835364 -0.0122321425 0.4425883 -0.31339604 0.11074661 0.038947422
0.019677898 -0.054341156 -0.14201172 -0.008422885 0.043877024 -0.037503637 0.054369885 0.21188723
0.049749363 -0.23831071 0.07931197 0.154315 -0.09558263 -0.014691352 0.2128279 -0.16160196
-0.015689591 -0.28404814 0.031313054 -0.017503735 0.10815072 0.08715289 0.11739273 -0.46945614
0.34172425 0.24216302 -0.39008117 0.17883748 0.15219864 -0.23584954 0.03997316 0.11824317
0.26590753 -0.25557974 -0.049809474 -0.012786129 -0.1395716 0.18381077 -0.63513994 -0.046813205
-0.092441574 0.31251752 0.21016449 0.07635308 -0.14294286 0.08647316 -0.08622414 -0.89327604
-0.45366773 -0.26019776 0.06755743 -0.11266161 -0.44267777 0.40286106 -0.06607447 -0.33698738
0.33244905 0.057174813 -0.10589304 -0.5759293 -0.14930424 -0.076606266 0.11835269 0.20757578
0.060068306 0.3134273 0.11374602 0.08640305 0.49628958 0.056485437 0.12638006 -0.092840746
00000000: 0936 753d f221 cf3e fefa 1f3e 5ae9 fdbe
00000010: a1d1 743e 60dd b73d 35ec d9be 1cd4 5b3d
00000020: 619b 21be 673a 8d3e 5bd6 e1bd 1696 823d
00000030: 20ec cfbb 41eb 54bd 115f 573d 6ebd 8abe
00000040: 215f 853d 5878 5b3d 935e 36c0 b6cb 36be
00000050: e83d a3bd aad3 7abe aced 2c3e 5b76 363e
00000060: 2148 6b3d 0515 f83c 62d3 583e bec4 063c
00000070: 0318 a9bc 3def 133d 3ea2 763d 5819 3dbe
00000080: fd06 c73c 5f23 103e f7b8 ddbc 67d2 3c3d
00000090: 0b49 573e 8a70 c23e 3289 233e 7c95 7dbe
000000a0: 9c45 0c3e 80b1 de3d 7c59 27bf c5a0 9a3c
000000b0: 7c8b b7bd ef45 f03e 2e56 12bd 6d6a e03d
000000c0: fb17 963b c9b6 a5bd 052d 85bd cf37 7dbe
000000d0: 142a e8bc b9e5 563d 6c17 e33e a7ed 5bbe
000000e0: aca4 493e a3ed d43d 51ea 6b3d 9d50 8abc
000000f0: c9d7 83be ffea e7bd 2034 6cbd 26d1 30bf
00000100: a1b9 00be 3125 083d 2a29 a93e ac5c 693e
00000110: 1801 fc3d cd5c 103e bc27 9e3d e935 92bd
00000120: ee66 0dbf 9783 773e 1d36 2b3e 1bcd 8bbe
00000130: 89c0 913d a700 223e 98e1 21bc 95a2 8a3d
00000140: 11c7 863e 5fc0 0e3f 825a 053d 886c 85bd
00000150: 65d0 a3be dcd0 15be bbf6 5a3d e790 38bd
00000160: 048a ed3d fa19 043d c086 5abe d9b2 623e
00000170: ddfc 1c3e 6ca6 5bbe 9c71 c1bc 8943 243e
00000180: 6bbd ee3d 126f 8a3d 15e3 0c3e 461e 513e
00000190: 9437 9bbb 44be 253d fc29 3f3e 6825 9dbe
000001a0: c919 a5bd dd27 323e 2685 1fbe c28b 3ebd
000001b0: 3a41 a1be 52f7 94be de8f cbbd 6fab d23e
000001c0: 5478 7f3d 03d2 e73d 23bc 573e 1400 bdbb
000001d0: fd4b 083d 4263 043f 20f6 13be 7d1d b6bd
000001e0: 4986 4abd 85bd 47be 2a86 aa3d be64 92bd
000001f0: a8a8 873d 7454 b93d b79f bc3e c31a 473e
00000200: f131 cebe e90d d3bd c524 e2bd bf93 0bbf
00000210: bb0a acbd 49f2 57be 567e 9cbd de61 533e
00000220: fbb3 a63d 008d d73d 26c0 46be 80cc 5bbe
00000230: 80d1 3cbd c5f7 d03d c3b0 2b3d 6946 ad3d
00000240: 5aae 6c3e fc7a 5f3d a08a 1e3e e1f5 b13d
00000250: f2b8 38be f109 d4bd 8fad 933d c802 c7bd
00000260: 85dd 72be 8161 3e3e 534d b8bc daa6 59bd
00000270: de6a 96bd 1fc3 05be 95fb 9b3d 41a2 b0bd
00000280: abc2 833d ef40 4b3d 4907 ab3e dd6f acbe
00000290: f956 03bb 4dfd 11be b52a b7bd ebbd 5abc
000002a0: 1117 ad3e 4c80 713d eab4 da3d 28f9 b33e
000002b0: 9ff2 eb3c 7092 02bf 3355 403d 4f24 283d
000002c0: c132 78bd af1d 06bf d3b2 04bf 5369 48bc
000002d0: ef9a e23e 7275 a0be 1ecf e23d 5587 1f3d
000002e0: 8b33 a13c d594 5ebd 856b 11be 2400 0abc
000002f0: 65b8 333d 6a9d 19bd f5b2 5e3d f7f8 583e
00000300: fdc5 4b3d b907 74be 506e a23d c004 1e3e
00000310: d3c0 c3bd ffb3 70bc 8fef 593e fc7a 25be
00000320: 7587 80bc c26e 91be 1e42 003d fe63 8fbc
00000330: 207e dd3d 377d b23d 9a6b f03d 8e5c f0be
00000340: 7bf6 ae3e 95f9 773e b8b8 c7be 2c21 373e
00000350: f6d9 1b3e 8b82 71be e5ba 233d 7a29 f23d
00000360: 0825 883e 59db 82be 0505 4cbd e97c 51bc
00000370: dceb 0ebe e438 3c3e 8898 22bf 34bf 3fbd
00000380: 0252 bdbd 4c02 a03e 5c35 573e 015f 9c3d
00000390: 9d5f 12be d718 b13d 4896 b0bd bdad 64bf
000003a0: 2347 e8be a438 85be 8d5b 8a3d 21bb e6bd
000003b0: a9a6 e2be ce43 ce3e 0d52 87bd 9c89 acbe
000003c0: c336 aa3e 2330 6a3d 73de d8bd 1a70 13bf
000003d0: 36e3 18be bfe3 9cbd e562 f23d bf8e 543e
000003e0: 2f0a 763d 8b79 a03e acf3 e83d 15f4 b03d
000003f0: ab19 fe3e 465d 673d c669 013e 4a23 bebd

sequential_5/conv2d_11/Conv2D i1 [64, 3, 3, 32]
-66 0 -44 2 -58 8 -8 30
1 -5 12 24 2 -1 4 15
11 -1 -25 36 -14 12 -8 -59
75 -15 -36 14 6 -84 8 -76
16 24 -32 -13 5 26 19 -27
8 17 -1 3 -24 11 27 9
-1 16 11 2 18 -2 16 -13
21 9 -25 -27 32 -76 -5 -50
-21 9 -18 15 -9 2 7 -16
25 24 12 6 18 25 3 14
14 16 19 12 17 5 18 7
21 14 5 -2 12 -39 2 1
-52 -3 -119 5 -18 14 19 -31
-50 8 -3 8 3 8 -22 13
14 0 4 -5 19 25 -16 -83
-5 -12 -12 1 13 -24 1 -2
17 2 -14 9 8 -9 -11 11
7 5 15 -3 9 -2 -22 0
-19 6 -12 -24 4 5 0 18
-22 10 -30 1 -5 -10 -7 -8
-10 16 -6 10 -3 15 -6 9
1 21 8 -38 19 23 -18 25
-10 28 16 -14 19 9 18 1
-11 4 -15 9 1 -28 4 -3
-37 -5 -127 18 -29 1 -2 -28
-54 12 9 3 13 7 -17 16
2 2 25 -25 9 9 25 -80
-14 -31 21 4 3 -8 9 45
23 -1 -2 3 13 -5 -9 18
-2 -11 23 -10 7 0 -38 13
-4 1 20 -30 -8 12 6 16
-13 -17 -31 5 -2 -17 5 15
00000000: be00 d402 c608 f81e 01fb 0c18 02ff 040f
00000010: 0bff e724 f20c f8c5 4bf1 dc0e 06ac 08b4
00000020: 1018 e0f3 051a 13e5 0811 ff03 e80b 1b09
00000030: ff10 0b02 12fe 10f3 1509 e7e5 20b4 fbce
00000040: eb09 ee0f f702 07f0 1918 0c06 1219 030e
00000050: 0e10 130c 1105 1207 150e 05fe 0cd9 0201
00000060: ccfd 8905 ee0e 13e1 ce08 fd08 0308 ea0d
00000070: 0e00 04fb 1319 f0ad fbf4 f401 0de8 01fe
00000080: 1102 f209 08f7 f50b 0705 0ffd 09fe ea00
00000090: ed06 f4e8 0405 0012 ea0a e201 fbf6 f9f8
000000a0: f610 fa0a fd0f fa09 0115 08da 1317 ee19
000000b0: f61c 10f2 1309 1201 f504 f109 01e4 04fd
000000c0: dbfb 8112 e301 fee4 ca0c 0903 0d07 ef10
000000d0: 0202 19e7 0909 19b0 f2e1 1504 03f8 092d
000000e0: 17ff fe03 0dfb f712 fef5 17f6 0700 da0d
000000f0: fc01 14e2 f80c 0610 f3ef e105 feef 050f

sequential_5/dense_5/MatMul i1 [10, 1600] scale=0.009727018 zero_point=0
-0.18481334 -0.06808913 0.17508632 -0.15563229 -0.07781614 0.08754316 -0.2139944 -0.22372141
0.03890807 -0.116724215 -1.10888 -0.39880773 -0.3890807 0.058362108 -0.9435207 0.08754316
0.116724215 0.20426738 -0.24317545 -0.07781614 -0.2139944 -0.07781614 -0.49607792 0.29181054
-0.35989967 -0.5836211 0.019454036 0.097270176 0.116724215 0.0 -0.41826177 -0.35989967
-0.3890807 -0.44744283 0.116724215 -0.4377158 -0.019454036 0.15563229 -0.19454035 0.03890807
0.24317545 -0.29181054 -0.25290248 -0.3307186 -0.2723565 -0.2723565 0.06808913 -0.5738941
-0.29181054 -0.3209916 -1.079699 -0.564167 -0.26262948 -0.116724215 -0.3307186 -0.62252915
-0.03890807 0.058362108 -0.009727018 -0.4279888 -0.544713 -0.25290248 0.048635088 -0.116724215
-0.19454035 -0.097270176 0.08754316 -0.14590527 -0.048635088 0.1069972 0.048635088 -0.07781614
0.07781614 -0.058362108 -0.097270176 -0.13617826 -0.06808913 0.009727018 -0.097270176 0.097270176
0.12645124 0.14590527 0.029181054 -0.1069972 -0.048635088 0.009727018 -0.3209916 -0.029181054
0.07781614 -0.1069972 -0.029181054 0.019454036 0.1653593 0.03890807 -0.12645124 -0.24317545
-0.19454035 -0.058362108 0.12645124 0.03890807 -0.009727018 0.1653593 -0.019454036 -0.019454036
-0.03890807 0.029181054 -0.39880773 -0.08754316 -0.097270176 -0.058362108 -0.13617826 -0.3793537
-0.35017264 -0.3209916 -0.30153754 -0.2820835 0.009727018 -0.08754316 -0.17508632 -0.097270176
-0.2820835 0.03890807 -0.097270176 -0.25290248 -0.4766239 0.13617826 0.13617826 -0.51553196
-0.1069972 0.2139944 0.07781614 0.12645124 0.029181054 0.08754316 0.048635088 -0.029181054
0.08754316 -0.31126457 -0.048635088 0.1069972 -0.019454036 -0.03890807 0.009727018 0.14590527
0.19454035 -0.17508632 0.009727018 -0.08754316 -0.2139944 0.009727018 -0.1069972 -0.20426738
0.07781614 -0.07781614 0.009727018 -0.3793537 0.24317545 -0.06808913 0.048635088 -0.3890807
-0.25290248 0.17508632 0.03890807 -0.029181054 -0.08754316 0.14590527 0.029181054 0.048635088
0.058362108 -0.009727018 -0.23344843 -0.12645124 -0.058362108 0.0 -0.03890807 0.058362108
-0.39880773 -0.13617826 0.048635088 -0.116724215 0.058362108 0.019454036 -0.097270176 -0.03890807
0.03890807 0.058362108 -0.097270176 -0.3209916 -0.31126457 0.097270176 -0.13617826 -0.3890807
-0.009727018 0.009727018 0.13617826 0.097270176 0.1653593 0.15563229 0.06808913 0.06808913
0.15563229 -0.24317545 0.1069972 -0.058362108 0.12645124 -0.048635088 -0.08754316 0.20426738
0.058362108 -0.048635088 0.058362108 -0.24317545 -0.08754316 -0.019454036 -0.20426738 -0.116724215
0.1069972 0.07781614 -0.029181054 -0.4377158 0.2820835 0.07781614 0.1653593 -0.12645124
-0.058362108 0.18481334 0.17508632 0.1069972 -0.15563229 0.0 0.1653593 0.0
0.009727018 0.097270176 -0.17508632 0.0 0.0 -0.009727018 0.08754316 0.009727018
-0.2139944 -0.029181054 0.048635088 -0.1069972 0.097270176 0.029181054 0.0 0.058362108
-0.058362108 0.15563229 -0.019454036 -0.08754316 -0.18481334 0.06808913 -0.41826177 -0.24317545
00000000: edf9 12f0 f809 eae9 04f4 8ed7 d806 9f09
00000010: 0c15 e7f8 eaf8 cd1e dbc4 020a 0c00 d5db
00000020: d8d2 0cd3 fe10 ec04 19e2 e6de e4e4 07c5
00000030: e2df 91c6 e5f4 dec0 fc06 ffd4 c8e6 05f4
00000040: ecf6 09f1 fb0b 05f8 08fa f6f2 f901 f60a
00000050: 0d0f 03f5 fb01 dffd 08f5 fd02 1104 f3e7
00000060: ecfa 0d04 ff11 fefe fc03 d7f7 f6fa f2d9
00000070: dcdf e1e3 01f7 eef6 e304 f6e6 cf0e 0ecb
00000080: f516 080d 0309 05fd 09e0 fb0b fefc 010f
00000090: 14ee 01f7 ea01 f5eb 08f8 01d9 19f9 05d8
000000a0: e612 04fd f70f 0305 06ff e8f3 fa00 fc06
000000b0: d7f2 05f4 0602 f6fc 0406 f6df e00a f2d8
000000c0: ff01 0e0a 1110 0707 10e7 0bfa 0dfb f715
000000d0: 06fb 06e7 f7fe ebf4 0b08 fdd3 1d08 11f3
000000e0: fa13 120b f000 1100 010a ee00 00ff 0901
000000f0: eafd 05f5 0a03 0006 fa10 fef7 ed07 d5e7
