Project-1/mc-project/app/src/main/assets/mnist_quad1.tflite (tflite, 39664 bytes, 6 tensors)

sequential_2/dense_2/BiasAdd/ReadVariableOp f4 [10]
00000000: 34a8 6abd 3760 b33e 951d 153e 5336 85be
00000010: dbd8 5bbd 1101 213b fd47 80bc 913c 533c
00000020: a0c7 dfbc 7f07 56bd
-0.057289317 0.35034344 0.14562066 -0.2601801 -0.053673606 0.0024567286 -0.015659327 0.012892858
-0.027316868 -0.052253243

sequential_2/conv2d_5/BiasAdd/ReadVariableOp f4 [64]
00000000: fb8a 033d da86 983d 17ac d53d d3dd 213e
00000010: eb7d e0bc 3d70 a03d d7cb 1abd 6c76 03bd
00000020: 5fd0 be3d 5864 4cbd 3af7 6bbd 349e 90bd
00000030: 20d6 243e 9c7a f93c ee3f 5abd f168 5a3d
00000040: 5178 26bc e4e7 ce3d abe1 f43c dd99 e33d
00000050: 346e 7abd 3c86 0fbe e226 9e3d 74f0 febc
00000060: 006a 5bbd 67d0 36bc 0a5c f83b b93a e1bc
00000070: 4954 5fbc 3711 01be dd47 eb3d dad0 bb3d
00000080: 7ec0 ff3b e0e4 c93d 1360 bc3d 9794 4abb
00000090: 6819 92bd e2f5 1dbd ebbd 943b 968e 52bd
000000a0: 65db 873d f95f 0d3e 5702 d6bb f459 c3bc
000000b0: 2d3c c3bd bf1a bd3c 0d68 0bbd e77a de3d
000000c0: b23a 4c3c 39e7 b63d aa88 0d3e 7060 67bd
000000d0: 1dea 8ebd bab2 a43d 25df 213e ac18 4a3d
000000e0: 45d5 f1bc c609 de3d 4bfb 503c 03a3 a53b
000000f0: 6a07 b73d 4e96 b23d 94fe 7d3d fe09 3f3b
0.032114964 0.07447596 0.10433214 0.15807275 -0.027403792 0.07833908 -0.037792053 -0.032095358
0.093170874 -0.049900383 -0.05760882 -0.07061425 0.16097307 0.030453973 -0.053283624 0.053322736
-0.010160522 0.101028234 0.029892763 0.111133315 -0.061140254 -0.1401605 0.0772226 -0.031120516
-0.053567886 -0.011158085 0.0075793313 -0.027493821 -0.013630935 -0.12604223 0.11488316 0.09170695
0.0078049293 0.098581076 0.09198012 -0.003091132 -0.07133752 -0.03856457 0.0045392415 -0.05140551
0.06633643 0.13806142 -0.0065310406 -0.023846604 -0.09532962 0.023084043 -0.034034777 0.108632855
0.012465166 0.08930821 0.13821664 -0.056488454 -0.06978247 0.08041902 0.15807779 0.049339935
-0.02952064 0.10841708 0.012755225 0.005054833 0.08936961 0.087200746 0.062010363 0.0029150243

sequential_2/conv2d_4/BiasAdd/ReadVariableOp f4 [32]
00000000: 7b2a c5ba c50f dbbb d2a6 8c3b 0567 07bc
00000010: 05dc 08bc 3ad5 a2ba 9996 263d 7ec5 c23d
00000020: f385 d5ba e027 a5bb 25a5 503c 4caa 67bb
00000030: 80b4 613d 552a c3bb fcea 443d 667d b63b
00000040: 01e3 8139 cf8e b33d f663 2d3d d370 4bbb
00000050: cc96 5cb8 a4b5 a23c c476 49bc 668e c1b7
00000060: 9cc0 4dbb 4bb8 be3b 558b 8c3d 7f79 84bb
00000070: 8c4a eebb 5258 64ba a666 3939 3d56 a33b
-0.0015042567 -0.0066852295 0.0042923475 -0.008264308 -0.008353238 -0.0012423166 0.040670965 0.09510325
-0.001629053 -0.005040154 0.012734686 -0.0035349308 0.05510378 -0.005955974 0.04807566 0.005569148
0.00024773928 0.08767473 0.04233166 -0.003104259 -5.2592528e-05 0.019862004 -0.012296382 -2.3073702e-05
-0.0031395322 0.0058203093 0.06862513 -0.004042804 -0.0072720703 -0.00087106705 0.00017681214 0.0049846456

sequential_2/conv2d_4/Conv2D f4 [32, 3, 3, 1]
00000000: 5852 5c3e 1acb 2b3d f27d 813d e395 e23c
00000010: 64e9 5dbe 520f 29be 75c0 6c3c a05d 44bd
00000020: 6682 913e 65e4 103e 2903 9dbd 2379 173e
00000030: 344a c9bd 1f60 bfbc a19d c7be efd1 8c3e
00000040: 6c49 933e e780 833d ddd6 52bd 776c 0a3d
00000050: 75ea eebd 0952 85bc a267 f13c 8b41 8ebe
00000060: 7dc5 df3d 75b8 4d3c 4c53 cd3e 302b 56be
00000070: 7d4c 573a 8748 583b 5147 2abe 0296 383e
00000080: 4769 89be 6990 6b3e 4416 873e 5eee c4bd
00000090: 489b cabe bf73 49be 9e18 253e 4986 05be
000000a0: a1f1 a8ba 0151 043f bda6 88be 9ea9 54be
000000b0: cf0a ff3d 3536 97bc 2c2a 1cbd cbce 3b3c
000000c0: 2e39 1abd 4e5f 36be a962 6f3e 7023 1b3e
000000d0: 4ff7 a9bc a7f4 e9bd 259b 443e 1eb6 143d
000000e0: 7b3b 943e cab6 74bd 27ab 603e bba1 6b3e
000000f0: ebff a5bd 59c3 27be 05b1 10bf 7e04 ac3d
00000100: 823d ebbc 609e 803e c03e 6cbc 1ea2 073e
00000110: d37a 303e 7a19 4c3b 0461 6e3e 5704 67bf
00000120: 00fc b9bd fc70 38be db14 31bf f8f4 17bd
00000130: 35f8 a7bd 0cc7 e33c ce4a 423e 723e 8c3e
00000140: 7b4d 0a3f ae19 55be 640d dc3d 6e2e 0ebe
00000150: 8ada 293d 9436 c6bd 73c5 bfbd d3ec a33e
00000160: 6a17 4f3e 3d24 473d b9e7 8b3d bd21 cabd
00000170: 0abd 2e3d 7272 4c3d 73cd 52bc deda b03e
00000180: 48ff 983d 63b0 37be bb48 88be 64ce 6cbb
00000190: 929c 59be ea08 ecbe 2e41 e23d 5a4f 83be
000001a0: d15e 2c3e c336 1ebe 5201 3cbe 3a86 a73e
000001b0: 73af 76bd db6e 01be 83fa c93d 5007 e03d
000001c0: aac8 153e 27fe 843e 31f5 bd3d cabe f6bc
000001d0: 0bdd 0cbf 5bb5 0b3e 6429 12bd 6d35 823e
000001e0: a56c 98bd f0ae 6ebe 6b16 9d3e 65b5 83bd
000001f0: 24c0 a9be 28ef ac3e 956a 073e 596b c43d
00000200: 3173 873e 96b4 85ba 5c14 003e 0ec3 8c3e
00000210: 3003 acbe e948 9ebe 02d7 b0be 8d77 273d
00000220: f682 c33d b59b b7bd a351 c93d 7994 a3bd
00000230: 5cfb 89be 8786 a6be 732f bbbd 4743 c13e
00000240: 3eaf 5b3e d668 7d3d ae56 44be 52f8 afbd
00000250: 8180 23be 60b2 a83d f458 d93d 32c1 9ebe
00000260: 95f6 ce3e cf15 a03e 2aad 8a3e 4240 543d
00000270: 7d3f 3d3e 60eb b73e c774 07bd 6e38 dbbd
00000280: 93ed 74be 5fc3 87bf 41e6 143e bae1 84bd
00000290: 3e82 a1be 8823 793e 7543 c73d d114 18bf
000002a0: bd25 f93d 0617 d63e 1244 96bc 62e6 d2ba
000002b0: b571 0cbd 0860 603c 8016 c33d 9c18 2ebe
000002c0: 644a 84bd e7c3 04bd cce1 0abe 982a e63e
000002d0: 1b5a 8dbd 78b9 ef3d 1dc6 1abe 81ac 543d
000002e0: 817a 16bd 6d98 a5be 0219 19bd cb0d 08bd
000002f0: cdef 1a3f b529 52be 4ead 933d 294b 953e
00000300: 4b17 bdbd 3ec7 efbd bf8e 833e 6c3e 9b3d
00000310: 7164 92be 8f3f 2dbe d33b d83d a926 8ebc
00000320: ecf8 3ebd 34a3 e9bd 950a 3dbd 1b72 873e
00000330: b1d7 2b3e aa8f e1be 55ff 033e 3545 5d3d
00000340: 2b77 04be cd87 073c 440d c43d 2951 91be
00000350: 4115 123e 7aee e83b d7fc 42be 6b6d ef3e
00000360: 087e 78bd 0050 d33d f0b7 f23c aaca ba3d
00000370: b2f3 d2bd 1e94 3abe bd59 d93d 96f6 86be
00000380: d885 843e 0439 d73c c084 123d 51e8 193d
00000390: 52a6 123d 3e35 74be 3a65 903d d1f4 283d
000003a0: f580 80be 69ff c83e 6f47 0a3e 581b 6d3d
000003b0: 5165 42be 8398 043d 5c7a 843d 5a74 e7be
000003c0: ce2a 823e c012 c83e 762d eebe 312a eebd
000003d0: 4e03 b7bc 1a1e 423d 52b1 c73d d61f 2cbe
000003e0: 81d2 78be 9bd5 933e f5a9 2e3e 1a5e a33e
000003f0: b1e5 f1be d036 9abe f25d c1be 1e24 dcbe
0.21515787 0.04194174 0.0632285 0.027659362 -0.21671063 -0.1650975 0.014450182 -0.04794085
0.284198 0.14149626 -0.076666184 0.14792304 -0.09828606 -0.023361264 -0.3898745 0.27503917
0.28766954 0.064210705 -0.05147444 0.033794846 -0.11665813 -0.016274469 0.029468361 -0.2778438
0.1092634 0.012556185 0.40102613 -0.20914912 0.0008212997 0.0033002214 -0.16628768 0.18025973
-0.26838133 0.23004307 0.26384175 -0.096157774 -0.39571595 -0.1967306 0.16122672 -0.13039507
-0.0012889394 0.516861 -0.2668971 -0.20767829 0.124532335 -0.018458465 -0.038126156 0.0114628775
-0.037652187 -0.17809793 0.2337748 0.15150237 -0.020747809 -0.11423617 0.19199808 0.036306493
0.2895163 -0.059744634 0.2194029 0.23010914 -0.08105453 -0.16383113 -0.5652011 0.08399294
-0.028715853 0.2512083 -0.014419258 0.13245437 0.17234354 0.0031143115 0.23279196 -0.90241
-0.09081268 -0.1801185 -0.6917245 -0.037098855 -0.082016386 0.027804874 0.18973848 0.27391392
0.54024476 -0.20810577 0.107447416 -0.13884899 0.04146818 -0.09678379 -0.09363832 0.3201662
0.20223776 0.048618544 0.06831307 -0.09869716 0.04266075 0.04991383 -0.012866366 0.34541982
0.07470566 -0.1793838 -0.2661799 -0.003613376 -0.21251133 -0.4610055 0.11047588 -0.25646478
0.16833045 -0.15450577 -0.18359879 0.32719594 -0.060225915 -0.12639944 0.098622344 0.10938895
0.14627329 0.25975153 0.09275282 -0.030120272 -0.55024785 0.136434 -0.035684004 0.25431386
-0.07442597 -0.23308921 0.30681166 -0.06431083 -0.33154404 0.33776212 0.13224252 0.095907874
0.26455072 -0.0010200914 0.12507766 0.27492565 -0.33596182 -0.30915 -0.34539038 0.040885497
0.09546463 -0.08965246 0.09830024 -0.07987303 -0.26949584 -0.3252451 -0.091399096 0.3774664
0.21453568 0.061867557 -0.1917369 -0.08592285 -0.15966989 0.08237147 0.106126696 -0.3100677
0.40422502 0.3126664 0.2708524 0.051819094 0.1848125 0.35921764 -0.033070352 -0.107041225
-0.23918752 -1.0606498 0.1454096 -0.064883664 -0.3154468 0.2432996 0.09729663 -0.59406763
0.12165401 0.4181444 -0.018343005 -0.0016090388 -0.034288127 0.013694771 0.09525776 -0.17001575
-0.064595014 -0.03241339 -0.13562697 0.4495437 -0.06901952 0.11705297 -0.15114637 0.051922325
-0.036737923 -0.32342854 -0.037377365 -0.03321628 0.60522157 -0.20523722 0.072107896 0.29158905
-0.092329584 -0.11707924 0.25694844 0.075802654 -0.28592256 -0.16918777 0.105582856 -0.017352419
-0.04662411 -0.11408082 -0.04615267 0.26454243 0.16781498 -0.4405492 0.1289037 0.05402108
-0.12936084 0.0082721235 0.09572843 -0.28382233 0.1426592 0.0071085067 -0.19041763 0.46763167
-0.060667068 0.10317993 0.029628724 0.09120686 -0.103003874 -0.18220565 0.10612819 -0.26360005
0.25883365 0.026272304 0.03577113 0.03757507 0.035803147 -0.23848435 0.070505574 0.0412491
-0.25098386 0.39257362 0.13503812 0.057887405 -0.18983962 0.03237201 0.06468651 -0.45205957
0.25423282 0.39076805 -0.4651906 -0.11629141 -0.022340443 0.04739199 0.09750618 -0.1680902
-0.24299051 0.28873906 0.17057021 0.3190773 -0.47245553 -0.30119944 -0.37766987 -0.42996305

sequential_2/conv2d_5/Conv2D i1 [64, 3, 3, 32]
00000000: f1de 13f8 1809 f0ed 06f8 fe1a f902 e1ec
00000010: d5e4 0812 f1e6 d50c e1ef 05f6 f7fd 0c18
00000020: f601 e728 f6fc fb0e e90f 0cdb 07c7 e8e3
00000030: bad5 27f4 d404 f0e6 f2da 2a17 cb0b ddc0
00000040: 0efa 1be6 c8e9 c1ba 3403 b226 81e1 ae10
00000050: 36ba 150b 08ba f81c f60f ba20 0823 fbe7
00000060: 0024 1f17 fa09 e906 e217 15eb f517 cedb
00000070: e5e3 e70a 0bee 0d08 0e14 ea1a 0712 21e6
00000080: f125 f01c a3ec 0913 fe05 0de3 ebdc e9ea
00000090: fa0a 1df9 f105 c0ee 04ec 041f d2f6 f3b1
000000a0: ec02 06e0 c9de d79e 33f0 0325 af0f d400
000000b0: 27b9 eb1b f8f1 eb20 e506 88ee 1109 0afa
000000c0: 070e 151c fe23 dc1f ff24 fefa 1202 e605
000000d0: e107 ed0c 00fd df0e 08f1 f20e 0900 0407
000000e0: e91b f81e c91b 0e20 0312 20fc eed1 f4f9
000000f0: f500 1109 05d8 caf4 fad5 f3f9 11fd ebc8
-15 -34 19 -8 24 9 -16 -19
6 -8 -2 26 -7 2 -31 -20
-43 -28 8 18 -15 -26 -43 12
-31 -17 5 -10 -9 -3 12 24
-10 1 -25 40 -10 -4 -5 14
-23 15 12 -37 7 -57 -24 -29
-70 -43 39 -12 -44 4 -16 -26
-14 -38 42 23 -53 11 -35 -64
14 -6 27 -26 -56 -23 -63 -70
52 3 -78 38 -127 -31 -82 16
54 -70 21 11 8 -70 -8 28
-10 15 -70 32 8 35 -5 -25
0 36 31 23 -6 9 -23 6
-30 23 21 -21 -11 23 -50 -37
-27 -29 -25 10 11 -18 13 8
14 20 -22 26 7 18 33 -26
-15 37 -16 28 -93 -20 9 19
-2 5 13 -29 -21 -36 -23 -22
-6 10 29 -7 -15 5 -64 -18
4 -20 4 31 -46 -10 -13 -79
-20 2 6 -32 -55 -34 -41 -98
51 -16 3 37 -81 15 -44 0
39 -71 -21 27 -8 -15 -21 32
-27 6 -120 -18 17 9 10 -6
7 14 21 28 -2 35 -36 31
-1 36 -2 -6 18 2 -26 5
-31 7 -19 12 0 -3 -33 14
8 -15 -14 14 9 0 4 7
-23 27 -8 30 -55 27 14 32
3 18 32 -4 -18 -47 -12 -7
-11 0 17 9 5 -40 -54 -12
-6 -43 -13 -7 17 -3 -21 -56

sequential_2/dense_2/MatMul i1 [10, 1600] scale=0.008496834 zero_point=0
00000000: ed00 f5f1 de02 f606 0203 f0fb f405 0201
00000010: f5eb d1fd 01ef fe09 ff00 fff8 02f7 f000
00000020: e4d9 eefb e5f9 0304 07f2 f8f7 f5f9 f405
00000030: fff7 faf6 03f3 f5fe f9fc e7f0 fbf5 fb01
00000040: 020e eef8 0201 0efb 0104 e9fb f605 f701
00000050: 0af0 f0fc f2fd 0003 f4f9 ff01 01f6 f3f8
00000060: 02ff f6fb 00fd 05fd 0302 03f3 02fc fb0c
00000070: f3f9 01ff 1303 05fc fafa f0f9 fcfb 0b0c
00000080: 09fc ff02 0bf3 01f6 06fc e901 0300 f9fd
00000090: f809 00fa ecfd ff07 f7fd f207 f900 fe01
000000a0: 00fb 04f5 00fd fffb f8fc fdf9 0108 fe06
000000b0: fb01 03fd fb03 f106 06fd eeef 00ff 0a05
000000c0: 0701 08ff 05fd 090f 05f7 f70e 0905 02f3
000000d0: fa06 0600 f002 fffa 0001 0bff 010c 08fc
000000e0: 04fd 0dea 06f9 f100 fa08 0c03 f406 02fe
000000f0: 00fa 05f3 0e02 0cff 02fb d804 0100 03f2
-0.16143985 0.0 -0.09346517 -0.12745251 -0.28889236 0.016993668 -0.08496834 0.050981004
0.016993668 0.025490502 -0.13594934 -0.04248417 -0.10196201 0.04248417 0.016993668 0.008496834
-0.09346517 -0.17843351 -0.3993512 -0.025490502 0.008496834 -0.14444618 -0.016993668 0.07647151
-0.008496834 0.0 -0.008496834 -0.06797467 0.016993668 -0.07647151 -0.13594934 0.0
-0.23791134 -0.33137652 -0.15294302 -0.04248417 -0.22941452 -0.059477836 0.025490502 0.033987336
0.059477836 -0.11895567 -0.06797467 -0.07647151 -0.09346517 -0.059477836 -0.10196201 0.04248417
-0.008496834 -0.07647151 -0.050981004 -0.08496834 0.025490502 -0.11045884 -0.09346517 -0.016993668
-0.059477836 -0.033987336 -0.21242085 -0.13594934 -0.04248417 -0.09346517 -0.04248417 0.008496834
0.016993668 0.11895567 -0.15294302 -0.06797467 0.016993668 0.008496834 0.11895567 -0.04248417
0.008496834 0.033987336 -0.19542718 -0.04248417 -0.08496834 0.04248417 -0.07647151 0.008496834
0.08496834 -0.13594934 -0.13594934 -0.033987336 -0.11895567 -0.025490502 0.0 0.025490502
-0.10196201 -0.059477836 -0.008496834 0.008496834 0.008496834 -0.08496834 -0.11045884 -0.06797467
0.016993668 -0.008496834 -0.08496834 -0.04248417 0.0 -0.025490502 0.04248417 -0.025490502
0.025490502 0.016993668 0.025490502 -0.11045884 0.016993668 -0.033987336 -0.04248417 0.10196201
-0.11045884 -0.059477836 0.008496834 -0.008496834 0.16143985 0.025490502 0.04248417 -0.033987336
-0.050981004 -0.050981004 -0.13594934 -0.059477836 -0.033987336 -0.04248417 0.09346517 0.10196201
0.07647151 -0.033987336 -0.008496834 0.016993668 0.09346517 -0.11045884 0.008496834 -0.08496834
0.050981004 -0.033987336 -0.19542718 0.008496834 0.025490502 0.0 -0.059477836 -0.025490502
-0.06797467 0.07647151 0.0 -0.050981004 -0.16993669 -0.025490502 -0.008496834 0.059477836
-0.07647151 -0.025490502 -0.11895567 0.059477836 -0.059477836 0.0 -0.016993668 0.008496834
0.0 -0.04248417 0.033987336 -0.09346517 0.0 -0.025490502 -0.008496834 -0.04248417
-0.06797467 -0.033987336 -0.025490502 -0.059477836 0.008496834 0.06797467 -0.016993668 0.050981004
-0.04248417 0.008496834 0.025490502 -0.025490502 -0.04248417 0.025490502 -0.12745251 0.050981004
0.050981004 -0.025490502 -0.15294302 -0.14444618 0.0 -0.008496834 0.08496834 0.04248417
0.059477836 0.008496834 0.06797467 -0.008496834 0.04248417 -0.025490502 0.07647151 0.12745251
0.04248417 -0.07647151 -0.07647151 0.11895567 0.07647151 0.04248417 0.016993668 -0.11045884
-0.050981004 0.050981004 0.050981004 0.0 -0.13594934 0.016993668 -0.008496834 -0.050981004
0.0 0.008496834 0.09346517 -0.008496834 0.008496834 0.10196201 0.06797467 -0.033987336
0.033987336 -0.025490502 0.11045884 -0.18693034 0.050981004 -0.059477836 -0.12745251 0.0
-0.050981004 0.06797467 0.10196201 0.025490502 -0.10196201 0.050981004 0.016993668 -0.016993668
0.0 -0.050981004 0.04248417 -0.11045884 0.11895567 0.016993668 0.10196201 -0.008496834
0.016993668 -0.04248417 -0.33987337 0.033987336 0.008496834 0.0 0.025490502 -0.11895567
