Project-1/mc-project/app/src/main/assets/mnist_quad3.tflite (tflite, 39664 bytes, 6 tensors)

sequential_4/dense_4/BiasAdd/ReadVariableOp f4 [10]
0	0xbd49de31	-0.049284164
1	0x3dd38fc5	0.10330156
2	0x3c990fe9	0.018684344
3	0xbcab2963	-0.020893758
4	0x3b904d6c	0.0044037607
5	0xbe26d855	-0.16293462
6	0xbd3682fb	-0.044558506
7	0x3e751bbe	0.23936364
8	0xbdab1e69	-0.0835541
9	0x3d97a893	0.074052

sequential_4/conv2d_9/BiasAdd/ReadVariableOp f4 [64]
0	0xbda8dd14	-0.08245292
1	0x3d5b7baf	0.05358475
2	0x3d50edde	0.051008098
3	0xbc584997	-0.013201139
4	0x3cd47d48	0.025938645
5	0xbd9dd4ec	-0.07706627
6	0xbd0fc79a	-0.035102464
7	0x3cdbab79	0.026815163
8	0xbd7d51a8	-0.06184545
9	0x3cecd680	0.028910875
10	0xbaf2f6f0	-0.0018536728
11	0xbbb6be81	-0.005576909
12	0x3d8fe610	0.07026303
13	0x3cb05c8d	0.021528507
14	0x3d0f9306	0.03505232
15	0xbcbb1cf7	-0.02284096
16	0xbd56ed83	-0.052472603
17	0x3da2ca38	0.079487264
18	0x3d8c258a	0.068430975
19	0xbd917a4e	-0.07103406
20	0xbd89406b	-0.0670174
21	0xbc76179d	-0.015020278
22	0xbd9308df	-0.071794264
23	0xbb09de0e	-0.0021036896
24	0xbc25dfc9	-0.010124155
25	0xbd3b106c	-0.045669958
26	0xbd75910a	-0.059952773
27	0x3caecba9	0.021337347
28	0xbc2a621d	-0.010399369
29	0x3ba40bb9	0.0050062803
30	0xbcd1b7e8	-0.025600389
31	0xbd8c1f3a	-0.068418935
32	0xbd76e949	-0.06028107
33	0xbad1a02b	-0.0015993168
34	0xbd2e49a0	-0.042550683
35	0xbd9efb78	-0.077628076
36	0xbd3de975	-0.04636522
37	0x3d7d44f0	0.061833322
38	0xbd753cc3	-0.0598724
39	0x3da9d1cd	0.082919694
40	0x3d8080fe	0.06274603
41	0x3da8ecc1	0.08248282
42	0xbd28ccdb	-0.04121099
43	0x3da6fda9	0.081538506
44	0x3d2f3ba1	0.042781476
45	0x3d53ef61	0.05174196
46	0xbb899a8d	-0.004199332
47	0xbd14b129	-0.036301766
48	0x3c8f1ab9	0.017468797
49	0xbda0e30d	-0.078558065
50	0xbd04da44	-0.032434717
51	0xbc3be6ce	-0.011468602
52	0x3db0fcd8	0.08641976
53	0xbd18f89d	-0.03734647
54	0x3ca243c7	0.01980771
55	0xbd7ff386	-0.0624881
56	0xbb85b30d	-0.0040801824
57	0x3d7761c7	0.060395982
58	0xbde48fa4	-0.1116021
59	0x3c2fa8fc	0.010721441
60	0xbb66f999	-0.0035243987
61	0x3cd01db8	0.025404796
62	0x3da79e6e	0.08184515
63	0x3d334211	0.043764178

sequential_4/conv2d_8/BiasAdd/ReadVariableOp f4 [32]
0	0xbb2ef60d	-0.002669695
1	0x3d9c11ad	0.07620559
2	0x3e54597e	0.20737264
3	0xbb8a3f61	-0.004218981
4	0xbbf2cf41	-0.0074099605
5	0xbb8d7714	-0.0043171737
6	0x3bcdf4e8	0.0062852986
7	0xbad37349	-0.001613238
8	0x3bbd4bff	0.0057768817
9	0x3b66fe8b	0.0035246934
10	0x3bb37adb	0.005477292
11	0x3d7b5b25	0.06136622
12	0x3db9b85e	0.090683684
13	0x3dc9bb9c	0.09850237
14	0xbb9646cd	-0.004586077
15	0xbc600835	-0.013673832
16	0xbbc07f0f	-0.0058745216
17	0xbc1a9208	-0.009434231
18	0x3af476f2	0.0018651171
19	0xbb8dc3ad	-0.004326305
20	0xbb9a172e	-0.0047024703
21	0xbb23efba	-0.0025014714
22	0xbc969740	-0.018382668
23	0x3db04797	0.08607405
24	0x3d98476e	0.07435499
25	0x3d108962	0.03528727
26	0xbb3f9417	-0.0029232556
27	0xbaebc2af	-0.0017987097
28	0xbc27217a	-0.0102008525
29	0xbc177280	-0.0092436075
30	0x3ba2052f	0.0049444656
31	0xbdc23676	-0.09483044

sequential_4/conv2d_8/Conv2D f4 [32, 3, 3, 1]
0	0xbe1be70e	-0.15224859
1	0xbdecdb61	-0.11565281
2	0x3f04abd8	0.5182471
3	0xbd2bbf59	-0.04193053
4	0xbe058223	-0.13037924
5	0xbcaf10e3	-0.021370357
6	0x3d1c3415	0.038135607
7	0xbc21bcb1	-0.009871648
8	0x3cb0c3c4	0.021577723
9	0xbe876718	-0.26445842
10	0xbe1dfdf9	-0.15428914
11	0xbf0ef862	-0.5584775
12	0x3e2d396d	0.16916437
13	0x3e709d32	0.23497465
14	0xbd5929f5	-0.05301853
15	0x3dbe2f8e	0.09286414
16	0x3e2d532b	0.16926257
17	0x3e37e104	0.1795693
18	0x3dfc71d2	0.12326397
19	0x3e5ca080	0.21545601
20	0xbf91a5e0	-1.1378746
21	0x3e9f07ec	0.3106073
22	0x3e8210e3	0.2540351
23	0xbeee34d2	-0.46524674
24	0x3e658fb1	0.22418095
25	0x3e358976	0.17728218
26	0xbf1b347e	-0.6062697
27	0xbe669d6f	-0.22520994
28	0xbe9f5fb9	-0.31127718
29	0x3eadcb84	0.33944333
30	0x3e80dae5	0.25167003
31	0x3df09cdb	0.11748668
32	0x3eabe8d0	0.3357606
33	0xbd0133c1	-0.031543497
34	0xbd9826c2	-0.074292675
35	0xbe913173	-0.2835804
36	0x3e704c41	0.23466589
37	0x3dd37ac2	0.103261486
38	0xbf16fe29	-0.5898157
39	0x3e5017b4	0.20321542
40	0x3e3b89b4	0.18314248
41	0xbe3d9515	-0.18513902
42	0x3dcbbb06	0.09947781
43	0x3cc4c33a	0.024018873
44	0x3e87ad4e	0.26499408
45	0x3d81be58	0.06335133
46	0xbe203544	-0.15645319
47	0x3eb8d98d	0.36103478
48	0xbcd3008d	-0.025757099
49	0xbe6ce4e1	-0.23134185
50	0xbdb14040	-0.08654833
51	0x3e453689	0.19259085
52	0xbd16771d	-0.03673469
53	0x3db92750	0.090407014
54	0xbd64bdbf	-0.05584502
55	0xbbb8aa13	-0.005635509
56	0x3eb53349	0.3539069
57	0xbe103bbf	-0.14085291
58	0xbe76745d	-0.24067827
59	0x3e5c8fa8	0.21539176
60	0x3d2c8c91	0.042126242
61	0xbe94ac92	-0.2903791
62	0xbde02def	-0.10946261
63	0x3df5f6b4	0.120099455
64	0x3e46da80	0.19419289
65	0x3e1a3938	0.1506089
66	0x3c907442	0.017633561
67	0x3e131d1e	0.14366576
68	0x3e0c8157	0.13721214
69	0xbc767fdd	-0.015045133
70	0xbe3cb754	-0.18429309
71	0xbf1af05f	-0.6052303
72	0xbd08804f	-0.03332549
73	0xbd5ebed4	-0.054381207
74	0x3e8b338f	0.27187774
75	0xbe117bbf	-0.14207362
76	0xbe02eea3	-0.12786345
77	0x3e22e9d2	0.15909508
78	0xbddffc75	-0.10936824
79	0xbe65cd01	-0.22441484
80	0x3e05a42b	0.13050906
81	0xb9fa8cbe	-0.00047788577
82	0x3e56d521	0.2097974
83	0x3e64c2ed	0.22339983
84	0x3e1ae984	0.15128142
85	0x3e20b173	0.15692692
86	0xbe04db2a	-0.1297423
87	0xbdfcae66	-0.12337951
88	0xbe3157e9	-0.17318691
89	0xbe8b75f6	-0.27238435
90	0x3d166877	0.03672072
91	0xbdddfcd2	-0.10839237
92	0x3f012c58	0.5045829
93	0xbcbcf789	-0.023067253
94	0xbe5d2092	-0.21594456
95	0x3d809b2f	0.06279599
96	0xbd9ae2c9	-0.07562787
97	0xbd4e13ed	-0.05031197
98	0xbbf4383f	-0.007452994
99	0x3e1ff04f	0.15619014
100	0xbdd645c0	-0.104625225
101	0xbf08c51a	-0.53425753
102	0x3e1bacba	0.15202609
103	0x3e9a488a	0.30133468
104	0xbd3df3d0	-0.046375096
105	0xbdd6c4d8	-0.10486764
106	0x3e070f45	0.13189419
107	0x3d9bd626	0.07609205
108	0x3d7eb56c	0.062184736
109	0x3dbbffc1	0.091796406
110	0x3eb59a2b	0.35469183
111	0x3e012171	0.12610413
112	0x3b287b41	0.002570823
113	0xbe119936	-0.14218602
114	0xbf036d8e	-0.5133904
115	0xbe83ce38	-0.2574327
116	0xbf285f9f	-0.65770906
117	0x3e7996c4	0.24373919
118	0xbd90c107	-0.07068067
119	0xbf36a6c0	-0.7134819
120	0x3e0b53d2	0.13606194
121	0x3e6a1837	0.228608
122	0xbe8505d0	-0.25980997
123	0x3e633f1b	0.22192042
124	0x3e528121	0.20557071
125	0xbce0415a	-0.027374912
126	0x3dba3ebb	0.09093996
127	0xbe0bf665	-0.13668211
128	0x3dc1a65a	0.09455557
129	0xbd311312	-0.043231077
130	0xbd81370a	-0.06309326
131	0x3da793b7	0.08182471
132	0xbc9fe8a7	-0.019520117
133	0xbe9b2d13	-0.30307826
134	0xbcf5a949	-0.029987948
135	0xbda15d6d	-0.07879148
136	0xbd871957	-0.0659663
137	0x3ef3c514	0.47611296
138	0xbd1199c6	-0.03554704
139	0xbe5ba727	-0.21450482
140	0xbca77545	-0.02044166
141	0xbb33e41e	-0.00274492
142	0x3ced4c60	0.028967083
143	0xbba330a1	-0.0049801623
144	0x3ef319fb	0.4748076
145	0x3e57452b	0.21022479
146	0xbe9c5549	-0.30533817
147	0x3e26be5e	0.16283557
148	0xbd954da1	-0.07290197
149	0xbe1ce3fe	-0.15321347
150	0xbc8b50b9	-0.017006265
151	0xbca21aeb	-0.019788226
152	0x3dc09377	0.09403127
153	0x3eaeb142	0.34119612
154	0x3eb4f93e	0.35346407
155	0x3c90e01c	0.017684989
156	0x3d670b6d	0.05640738
157	0xbe106d44	-0.14104182
158	0xbf17e2df	-0.5933055
159	0x3de77a0f	0.11302578
160	0xbd894957	-0.067034416
161	0x3d39e9ce	0.04538899
162	0x3c81dce1	0.015852394
163	0x3ea164a1	0.31522086
164	0x3ecee3fa	0.40408307
165	0xbebc166f	-0.36735865
166	0xbe855ce0	-0.2604742
167	0x3d1a7a3d	0.03771423
168	0xbe995ee7	-0.29955217
169	0xbe8f7da2	-0.28025538
170	0xbe42aaac	-0.19010419
171	0xbd7ec47a	-0.062199093
172	0xbdce145c	-0.10062477
173	0x3e9e1a04	0.30879223
174	0xbdb0949a	-0.086220935
175	0xbdfca7eb	-0.12336715
176	0x3dc7bf20	0.09753251
177	0x3d8f6add	0.070028044
178	0xba8f1a8e	-0.0010917948
179	0xbd5d7ab3	-0.054072093
180	0x3dbca8f3	0.09211912
181	0xbe8c625b	-0.2741879
182	0x3ecae0f7	0.3962476
183	0x3c760f30	0.015018269
184	0xbe236c6e	-0.15959331
185	0x3d7d9421	0.061908845
186	0x3c1a81e3	0.0094303815
187	0xbbfe3948	-0.0077582933
188	0x3c9ad4dd	0.01890033
189	0xbe895a4a	-0.26826698
190	0xbc8508ad	-0.016239488
191	0x3e4ea96b	0.20181815
192	0xbe5a7a34	-0.2133568
193	0xbcc4a770	-0.024005622
194	0x3e7a5ebd	0.24450202
195	0x3c16bef1	0.009200797
196	0xbaa4b6eb	-0.0012566721
197	0xbd947f26	-0.07250814
198	0x3d4fa0da	0.05069051
199	0xbe13faeb	-0.14451186
200	0x3e9b75e0	0.3036337
201	0x3d4903d4	0.049075916
202	0xbe85b31e	-0.26113218
203	0xbe307cff	-0.17235182
204	0x3d9b8f4f	0.07595693
205	0x3d4dea2c	0.05027215
206	0x3e313f25	0.17309244
207	0xbec75b20	-0.3893671
208	0xbeb36ab1	-0.35042337
209	0xbee91696	-0.45525044
210	0x3df19e9f	0.11797833
211	0x3e6495e4	0.22322804
212	0x3e9c4fbe	0.30529588
213	0x3dfa08a3	0.122086786
214	0x3b694140	0.003559187
215	0x3db8bb93	0.09020152
216	0x3e2a2449	0.16615404
217	0xbdbd0bde	-0.09230779
218	0xbf030401	-0.51177984
219	0xbefc48ee	-0.4927439
220	0x3d856b49	0.06514604
221	0x3e41a639	0.18911065
222	0xbe9d222c	-0.30690134
223	0x3dcf6934	0.10127488
224	0x3e6c9e72	0.23107317
225	0xbdfc6f28	-0.12325889
226	0xbe91e814	-0.28497374
227	0xbec8ac6c	-0.39194047
228	0x3d77dece	0.060515217
229	0x3df3fb46	0.11913161
230	0x3e9c6e26	0.30552787
231	0x3dc8511b	0.09781095
232	0x3e237190	0.1596129
233	0x3dd46dd4	0.103725106
234	0x39718b8e	0.00023035539
235	0x3e33b1b5	0.17548259
236	0x3f1199db	0.5687539
237	0xbde3ea48	-0.1112867
238	0xbd983432	-0.074318305
239	0xbe4a6990	-0.19766831
240	0xbd85409a	-0.065064624
241	0xbe085756	-0.13314566
242	0xbc321555	-0.010869344
243	0xbe32fbaf	-0.17478822
244	0xbeca60ca	-0.3952697
245	0xbbdf5051	-0.0068149944
246	0xbefede99	-0.49779204
247	0xbe01a227	-0.12659512
248	0x3e820ac9	0.25398853
249	0xbebeeff6	-0.3729245
250	0xbe0a6375	-0.13514502
251	0x3ee35385	0.44399658
252	0x3de729f3	0.11287298
253	0xbe2a908c	-0.16656703
254	0x3daebf94	0.085326344
255	0x3d0f3a27	0.034967568

sequential_4/conv2d_9/Conv2D i1 [64, 3, 3, 32]
0	0x0f	15
1	0xc5	-59
2	0xbc	-68
3	0x15	21
4	0xf0	-16
5	0x09	9
6	0xf1	-15
7	0x22	34
8	0xe4	-28
9	0x17	23
10	0x0d	13
11	0xb5	-75
12	0x03	3
13	0xa1	-95
14	0xda	-38
15	0xef	-17
16	0x06	6
17	0x12	18
18	0xf2	-14
19	0xf7	-9
20	0x08	8
21	0xf4	-12
22	0x07	7
23	0x05	5
24	0xcb	-53
25	0x21	33
26	0xfd	-3
27	0xbd	-67
28	0xfd	-3
29	0x12	18
30	0x16	22
31	0xfd	-3
32	0x12	18
33	0xc3	-61
34	0xb2	-78
35	0xf7	-9
36	0xee	-18
37	0x13	19
38	0x18	24
39	0x22	34
40	0x01	1
41	0x0b	11
42	0x06	6
43	0xaf	-81
44	0x10	16
45	0xd3	-45
46	0x10	16
47	0x1b	27
48	0xf3	-13
49	0xfb	-5
50	0x01	1
51	0x04	4
52	0x1c	28
53	0xec	-20
54	0x0b	11
55	0xc1	-63
56	0xba	-70
57	0xba	-70
58	0x22	34
59	0xcd	-51
60	0x00	0
61	0x22	34
62	0x14	20
63	0xfd	-3
64	0xf4	-12
65	0xe3	-29
66	0x81	-127
67	0xe5	-27
68	0xe5	-27
69	0x12	18
70	0x0e	14
71	0xf5	-11
72	0x16	22
73	0xfb	-5
74	0xff	-1
75	0x09	9
76	0xcc	-52
77	0xb5	-75
78	0x15	21
79	0xff	-1
80	0x02	2
81	0xd9	-39
82	0x11	17
83	0xf8	-8
84	0x01	1
85	0xfb	-5
86	0x0a	10
87	0xca	-54
88	0x0a	10
89	0xc0	-64
90	0x0a	10
91	0xdc	-36
92	0x06	6
93	0x1e	30
94	0xfe	-2
95	0xf5	-11
96	0xe7	-25
97	0xcf	-49
98	0xf0	-16
99	0xf0	-16
100	0x32	50
101	0x0b	11
102	0xe1	-31
103	0x0c	12
104	0xcd	-51
105	0x1e	30
106	0xdd	-35
107	0xfe	-2
108	0xe0	-32
109	0xff	-1
110	0xec	-20
111	0xef	-17
112	0x34	52
113	0x3e	62
114	0xcf	-49
115	0xd3	-45
116	0xf6	-10
117	0xdd	-35
118	0x03	3
119	0xc9	-55
120	0xed	-19
121	0xe2	-30
122	0xf1	-15
123	0x11	17
124	0x00	0
125	0xf7	-9
126	0x0b	11
127	0x20	32
128	0xea	-22
129	0xf0	-16
130	0xe7	-25
131	0xf5	-11
132	0x23	35
133	0x07	7
134	0xe3	-29
135	0x02	2
136	0xf1	-15
137	0xf1	-15
138	0x09	9
139	0x03	3
140	0xf3	-13
141	0x02	2
142	0xf8	-8
143	0xff	-1
144	0x10	16
145	0x1b	27
146	0xf2	-14
147	0xf7	-9
148	0xf3	-13
149	0xf1	-15
150	0x11	17
151	0xdc	-36
152	0xd6	-42
153	0xfb	-5
154	0xfc	-4
155	0xff	-1
156	0xf7	-9
157	0xeb	-21
158	0x05	5
159	0x04	4
160	0x1e	30
161	0xb3	-77
162	0x86	-122
163	0xff	-1
164	0xdd	-35
165	0x26	38
166	0x09	9
167	0xe4	-28
168	0x0a	10
169	0x05	5
170	0x1c	28
171	0xdc	-36
172	0xff	-1
173	0xc4	-60
174	0x0b	11
175	0x1c	28
176	0xd8	-40
177	0xdc	-36
178	0xf7	-9
179	0x13	19
180	0x26	38
181	0x0e	14
182	0x1f	31
183	0xcc	-52
184	0xa2	-94
185	0xee	-18
186	0x0a	10
187	0xdf	-33
188	0x0d	13
189	0x1e	30
190	0x01	1
191	0xfe	-2
192	0xfb	-5
193	0xd0	-48
194	0x0f	15
195	0xe4	-28
196	0x41	65
197	0x0f	15
198	0xb9	-71
199	0x10	16
200	0xbc	-68
201	0x04	4
202	0xcc	-52
203	0x29	41
204	0xdb	-37
205	0x35	53
206	0xf8	-8
207	0xf3	-13
208	0x2e	46
209	0x37	55
210	0xcc	-52
211	0x08	8
212	0x03	3
213	0xfa	-6
214	0xf5	-11
215	0xdf	-33
216	0x03	3
217	0x1c	28
218	0xde	-34
219	0xe4	-28
220	0x19	25
221	0x06	6
222	0x19	25
223	0x21	33
224	0xee	-18
225	0xe5	-27
226	0xf4	-12
227	0x0f	15
228	0x13	19
229	0xf4	-12
230	0xe4	-28
231	0x05	5
232	0xe1	-31
233	0xf7	-9
234	0xf7	-9
235	0x0e	14
236	0xdb	-37
237	0x12	18
238	0xe9	-23
239	0xf3	-13
240	0x10	16
241	0x01	1
242	0xd6	-42
243	0x00	0
244	0xf9	-7
245	0xf5	-11
246	0xd5	-43
247	0x02	2
248	0xd7	-41
249	0x16	22
250	0xec	-20
251	0xd7	-41
252	0x12	18
253	0xf6	-10
254	0xf8	-8
255	0x14	20

sequential_4/dense_4/MatMul i1 [10, 1600] scale=0.009261713 zero_point=0
0	0xf1	-0.1389257
1	0x01	0.009261713
2	0x12	0.16671084
3	0x01	0.009261713
4	0x10	0.14818741
5	0x03	0.027785141
6	0x0d	0.12040228
7	0xf5	-0.101878844
8	0x0c	0.111140564
9	0xf7	-0.08335542
10	0x16	0.20375769
11	0x18	0.22228113
12	0x10	0.14818741
13	0x16	0.20375769
14	0x10	0.14818741
15	0x01	0.009261713
16	0xff	-0.009261713
17	0x10	0.14818741
18	0x14	0.18523426
19	0x00	0.0
20	0x0d	0.12040228
21	0xfd	-0.027785141
22	0xf8	-0.07409371
23	0x0b	0.101878844
24	0x09	0.08335542
25	0xfd	-0.027785141
26	0xfa	-0.055570282
27	0xff	-0.009261713
28	0x17	0.2130194
29	0x01	0.009261713
30	0x0d	0.12040228
31	0x10	0.14818741
32	0xeb	-0.19449598
33	0x04	0.037046853
34	0x01	0.009261713
35	0x02	0.018523427
36	0x07	0.064831994
37	0x14	0.18523426
38	0xf9	-0.064831994
39	0x13	0.17597255
40	0x14	0.18523426
41	0x16	0.20375769
42	0x18	0.22228113
43	0x17	0.2130194
44	0x05	0.046308566
45	0x08	0.07409371
46	0xf1	-0.1389257
47	0xfb	-0.046308566
48	0xf2	-0.12966399
49	0xf3	-0.12040228
50	0x01	0.009261713
51	0x0c	0.111140564
52	0x04	0.037046853
53	0xfa	-0.055570282
54	0x11	0.15744913
55	0x18	0.22228113
56	0x0f	0.1389257
57	0x10	0.14818741
58	0x06	0.055570282
59	0x07	0.064831994
60	0x05	0.046308566
61	0xf9	-0.064831994
62	0x00	0.0
63	0xef	-0.15744913
64	0x09	0.08335542
65	0xfb	-0.046308566
66	0x03	0.027785141
67	0x03	0.027785141
68	0x0f	0.1389257
69	0x0b	0.101878844
70	0x05	0.046308566
71	0xf4	-0.111140564
72	0xf2	-0.12966399
73	0xf7	-0.08335542
74	0x0f	0.1389257
75	0xfa	-0.055570282
76	0x08	0.07409371
77	0x05	0.046308566
78	0xfc	-0.037046853
79	0x00	0.0
80	0x0f	0.1389257
81	0x11	0.15744913
82	0x05	0.046308566
83	0x07	0.064831994
84	0xf1	-0.1389257
85	0x07	0.064831994
86	0xe6	-0.24080455
87	0x07	0.064831994
88	0x0d	0.12040228
89	0x0f	0.1389257
90	0x07	0.064831994
91	0xda	-0.3519451
92	0x10	0.14818741
93	0x04	0.037046853
94	0xf8	-0.07409371
95	0x02	0.018523427
96	0x02	0.018523427
97	0xf9	-0.064831994
98	0x0a	0.09261713
99	0xfb	-0.046308566
100	0x05	0.046308566
101	0x0f	0.1389257
102	0x14	0.18523426
103	0x08	0.07409371
104	0x0a	0.09261713
105	0x08	0.07409371
106	0x07	0.064831994
107	0x05	0.046308566
108	0x09	0.08335542
109	0x05	0.046308566
110	0xf3	-0.12040228
111	0xdd	-0.32415998
112	0xe7	-0.23154284
113	0x0b	0.101878844
114	0xfc	-0.037046853
115	0x06	0.055570282
116	0xef	-0.15744913
117	0x12	0.16671084
118	0x00	0.0
119	0x19	0.23154284
120	0xfc	-0.037046853
121	0xff	-0.009261713
122	0x0f	0.1389257
123	0xe8	-0.22228113
124	0x07	0.064831994
125	0xee	-0.16671084
126	0xfb	-0.046308566
127	0xf6	-0.09261713
128	0xfd	-0.027785141
129	0xe8	-0.22228113
130	0x0b	0.101878844
131	0x01	0.009261713
132	0xfd	-0.027785141
133	0x07	0.064831994
134	0xf8	-0.07409371
135	0xf9	-0.064831994
136	0xd2	-0.4260388
137	0xe9	-0.2130194
138	0x0b	0.101878844
139	0xc0	-0.59274966
140	0x0c	0.111140564
141	0xfa	-0.055570282
142	0x01	0.009261713
143	0xef	-0.15744913
144	0x0f	0.1389257
145	0xed	-0.17597255
146	0x02	0.018523427
147	0x06	0.055570282
148	0xd2	-0.4260388
149	0x07	0.064831994
150	0xd4	-0.40751538
151	0xfa	-0.055570282
152	0x16	0.20375769
153	0x08	0.07409371
154	0x0a	0.09261713
155	0xc2	-0.5742262
156	0x09	0.08335542
157	0xec	-0.18523426
158	0xf9	-0.064831994
159	0x03	0.027785141
160	0x0d	0.12040228
161	0xd2	-0.4260388
162	0x04	0.037046853
163	0x01	0.009261713
164	0x05	0.046308566
165	0x05	0.046308566
166	0x0f	0.1389257
167	0x03	0.027785141
168	0x00	0.0
169	0x06	0.055570282
170	0x05	0.046308566
171	0x08	0.07409371
172	0x00	0.0
173	0x06	0.055570282
174	0xfa	-0.055570282
175	0xea	-0.20375769
176	0xd3	-0.4167771
177	0x00	0.0
178	0xf9	-0.064831994
179	0x09	0.08335542
180	0xfa	-0.055570282
181	0xfc	-0.037046853
182	0x0a	0.09261713
183	0xf8	-0.07409371
184	0xc6	-0.53717935
185	0xf8	-0.07409371
186	0xfc	-0.037046853
187	0xef	-0.15744913
188	0x0e	0.12966399
189	0xe6	-0.24080455
190	0xf2	-0.12966399
191	0x0f	0.1389257
192	0x04	0.037046853
193	0xe4	-0.25932798
194	0x00	0.0
195	0x01	0.009261713
196	0x04	0.037046853
197	0x00	0.0
198	0xf1	-0.1389257
199	0x06	0.055570282
200	0xce	-0.46308568
201	0xe3	-0.26858968
202	0xfd	-0.027785141
203	0xce	-0.46308568
204	0x05	0.046308566
205	0x05	0.046308566
206	0x03	0.027785141
207	0xec	-0.18523426
208	0x0b	0.101878844
209	0xf5	-0.101878844
210	0xfa	-0.055570282
211	0x08	0.07409371
212	0xe2	-0.2778514
213	0x03	0.027785141
214	0xe7	-0.23154284
215	0xfb	-0.046308566
216	0xfa	-0.055570282
217	0x0a	0.09261713
218	0xf9	-0.064831994
219	0xce	-0.46308568
220	0x07	0.064831994
221	0xe2	-0.2778514
222	0xf3	-0.12040228
223	0x02	0.018523427
224	0x07	0.064831994
225	0xda	-0.3519451
226	0xff	-0.009261713
227	0x04	0.037046853
228	0x02	0.018523427
229	0xff	-0.009261713
230	0x0e	0.12966399
231	0x04	0.037046853
232	0xfd	-0.027785141
233	0x07	0.064831994
234	0x10	0.14818741
235	0xff	-0.009261713
236	0x03	0.027785141
237	0x0f	0.1389257
238	0x03	0.027785141
239	0xf5	-0.101878844
240	0xbc	-0.6297965
241	0xfa	-0.055570282
242	0x08	0.07409371
243	0x01	0.009261713
244	0xfd	-0.027785141
245	0x01	0.009261713
246	0x09	0.08335542
247	0xee	-0.16671084
248	0xb4	-0.7038902
249	0xeb	-0.19449598
250	0x00	0.0
251	0xe8	-0.22228113
252	0x0c	0.111140564
253	0xe5	-0.25006625
254	0xe5	-0.25006625
255	0x0c	0.111140564
