Project-1/mc-project/app/src/main/assets/mnist_quad2.tflite (tflite, 39664 bytes, 6 tensors)

sequential_3/dense_3/BiasAdd/ReadVariableOp f4 [10]
000000 be 3d f2 bd 7c 2e 31 3e 1a 7b 00 3e 35 6c a3 bc
       -0.11828183 0.17302889 0.1254696 -0.019949058
000010 dd e6 34 3c d1 90 fd bc 39 5b 60 3e 09 86 a0 3d
       0.01104137 -0.030952843 0.21909799 0.07838065
000020 91 72 5b be f6 ca c3 bd
       -0.21430422 -0.09560196

sequential_3/conv2d_7/BiasAdd/ReadVariableOp f4 [64]
000000 63 66 14 3c 7d 07 40 bd d0 0e ec bc c6 c2 7b bd
       0.009057614 -0.04688214 -0.028815657 -0.061465047
000010 6b d3 09 3d bd 56 6c bd 2f 5a 28 bd 7d be 94 bd
       0.03364889 -0.057699908 -0.04110163 -0.07262895
000020 81 14 91 bd 93 a9 2d 3d f3 04 94 bd c0 96 5d 3d
       -0.07083989 0.042398047 -0.072275065 0.054098845
000030 a2 54 3f bd b5 db 79 3c 4a 09 b7 3d 28 10 ae bc
       -0.04671157 0.015250136 0.089373186 -0.021247938
000040 9b 58 9a 3d 52 d6 b9 bc c0 9c aa bd 77 68 21 3d
       0.075364314 -0.022685204 -0.08330679 0.039406266
000050 4f 84 8d bc 2a 63 11 bd 11 bd e8 3b ae b3 03 bd
       -0.017275004 -0.03549496 0.0071026166 -0.032153778
000060 30 3c 8c bd c2 1c 4f bd b9 b6 ec bc b5 2d 0e 3e
       -0.06847417 -0.050564535 -0.028895723 0.13884623
000070 b0 f2 1f bd 1d 9f a9 3d 88 81 44 bd e0 95 00 bd
       -0.039049804 0.082823016 -0.047975093 -0.031392932
000080 7d d5 6b bd ec 0b 27 bd e3 73 6f bd 7a 75 22 bd
       -0.057576645 -0.040782854 -0.058460128 -0.039662816
000090 11 ab af bd ce 91 24 3d b8 b5 9c 3d c3 e1 8b bd
       -0.0857755 0.040178113 0.076518476 -0.0683017
0000a0 63 46 f9 bd 1d 65 c6 3d 15 bf fe bc 0d b6 f9 bc
       -0.12171628 0.096872546 -0.031096974 -0.030482316
0000b0 e4 1a 10 bd 58 8c 60 3d fa ad a9 bc 39 e7 07 bc
       -0.035181895 0.054821342 -0.020712841 -0.008294874
0000c0 59 1e 89 3d 4f 31 aa 3d 57 1f 17 bd d5 27 95 bd
       0.066952415 0.08310186 -0.036895122 -0.07282988
0000d0 dc d1 0e bc 6c c0 20 3d 8c a4 e5 bb 80 14 ab 3d
       -0.008717027 0.039246008 -0.007008141 0.083535194
0000e0 82 b6 1a b9 1a 07 24 3c 0c 00 19 3d 6c 0b cc 3d
       -0.00014754574 0.010011459 0.03735356 0.09963116
0000f0 04 41 93 bd 2b 54 c5 3c 93 fc 9a 3d 99 4f a0 3d
       -0.07190135 0.024087986 0.07567706 0.07827682

sequential_3/conv2d_6/BiasAdd/ReadVariableOp f4 [32]
000000 54 cd 6f b9 0c 3d cd ba 73 1c ba bb 85 2a 86 bb
       -0.00022869307 -0.0015658452 -0.005679661 -0.004094424
000010 79 79 95 3d c3 63 15 bc 9e b7 0f 3c ee fe b2 3d
       0.0729856 -0.009118023 0.008771805 0.0874003
000020 e3 ec 10 3d eb c9 5e bd 54 f1 18 bb 5b 47 67 bc
       0.035382163 -0.054391783 -0.0023337202 -0.014116134
000030 5a 9c e8 bd 80 28 ef ba d4 ab 06 3c ec 5d b5 ba
       -0.11357947 -0.0018246323 0.008219678 -0.0013837195
000040 a5 5c 91 bc 1e 33 e6 3d 5d 9b 0f bc fb 00 be bb
       -0.017744372 0.112402186 -0.008765069 -0.0057984567
000050 1e 60 09 3b 43 62 c3 3b ff 7d a9 3d 52 8f a2 bb
       0.0020961831 0.0059626414 0.08275985 -0.004960933
000060 1e 7b 8a 3b b6 9d 30 bb b2 8a a9 3d d5 e6 01 bc
       0.0042261025 -0.0026949472 0.08278407 -0.00792857
000070 a8 2b be 3d 55 40 81 bd 42 50 94 3d 5d 55 00 3e
       0.092856705 -0.063110985 0.072418705 0.12532564

sequential_3/conv2d_6/Conv2D f4 [32, 3, 3, 1]
000000 e8 39 13 bd 22 dd 0d be ea 11 7b 3d b0 54 d9 3d
       -0.035943896 -0.13853887 0.06129638 0.10611856
000010 f1 53 93 be 58 7a 28 be 20 d4 d3 3e a6 f1 24 3d
       -0.2877498 -0.1645292 0.41372776 0.040269516
000020 d5 4a e8 3d ce 07 86 bd 26 90 af 3d be a7 3d bd
       0.11342398 -0.065444574 0.08572416 -0.04630255
000030 2f e5 cd 3d fc ab 06 be 97 37 bc 3d 18 8d 05 3f
       0.10053479 -0.13151544 0.091902904 0.52168417
000040 ea eb 3d be ef ca 8c be 48 ae 2d 3e 84 46 24 be
       -0.18547025 -0.27498576 0.16961014 -0.16042525
000050 d5 c0 04 bd 41 3a 80 3e 4b a9 ab bb 9f 1e 13 3d
       -0.03241046 0.25044444 -0.005238687 0.035917874
000060 51 ac 28 be ae 6b eb bd 94 8d 27 3c af b6 40 3d
       -0.16471983 -0.11495148 0.010226626 0.04704922
000070 8b da e5 bd a8 c1 08 3e 9d 03 d0 3d fd 6f ac be
       -0.112233244 0.13355124 0.10156939 -0.3367919
000080 3e 02 a2 3a c6 ef f3 3e 96 27 fa bd 73 ed 26 3d
       0.0012360287 0.4764387 -0.12214582 0.040753793
000090 90 65 01 3e 30 fc 00 3e eb 2f 5a 3e 2f 64 8d 3d
       0.126364 0.12596202 0.21307342 0.06903874
0000a0 29 0c 74 3e f6 c3 2c 3d a0 39 08 bf d0 5d 7c be
       0.23832764 0.04217907 -0.5321293 -0.24645162
0000b0 44 61 a1 bd 4a 31 15 3e 80 c7 4b bb f4 16 23 bd
       -0.0787988 0.14569584 -0.0031094253 -0.03981681
0000c0 8b 29 ab 3d 32 a5 7d bc 03 68 cb bd 24 46 0d 3e
       0.08357533 -0.01548128 -0.09931948 0.13796288
0000d0 81 55 3d be 8d 35 f4 bc 58 8b 9e bd b5 c7 56 be
       -0.18489648 -0.029810691 -0.077414215 -0.2097462
0000e0 8f cb d5 bd e2 5e 01 3d a0 ec fc bd 6e ee 91 bd
       -0.10439216 0.031584628 -0.1234982 -0.07125555
0000f0 4a 1b 01 3f ff ce 4e 3d 46 99 a0 3a 6b 63 67 3e
       0.50432265 0.050490376 0.001225271 0.22596519
000100 f7 c5 c5 3d 42 06 a2 3d 28 a9 b7 bd 42 ab 1f 3e
       0.096568994 0.0791135 -0.08967811 0.15592673
000110 11 e4 5e 3e 35 53 38 bf ec c4 34 bd 2f 72 99 3d
       0.21766688 -0.72001964 -0.04413311 0.07492482
000120 87 d5 42 be c3 69 a7 bc ca 1d 5d 3d c6 dd 79 be
       -0.19026767 -0.020436173 0.053983487 -0.24401006
000130 49 a4 b0 be 59 5f 18 be 8e 72 bb 3e 4b a8 4b 3e
       -0.3450034 -0.14880122 0.36610836 0.19888417
000140 1a d7 d3 bc 31 b4 df 3d 0c d8 96 3d d6 92 0a 3e
       -0.025859404 0.10923041 0.073654264 0.13532576
000150 1a 59 2f be 98 dd db bd 63 6c 70 3c 08 77 7d 3e
       -0.17123833 -0.10735625 0.014674279 0.24752438
000160 bb 45 39 3b 5a 07 60 be ae dd b8 be 2d 10 1a bd
       0.0028270322 -0.21877804 -0.36106628 -0.037613083
000170 6f a6 89 bd f4 9a 92 3e 24 27 e7 bd 76 7e 3a 3e
       -0.06721198 0.28633845 -0.11286762 0.18212304
000180 28 13 00 3f 92 e5 03 be 64 f5 21 bd cb 09 3c 3e
       0.5002923 -0.12880543 -0.039540663 0.1836311
000190 fa dc 91 3c ce 7a 92 3d 98 68 e8 bc ff 65 ca 3d
       0.017805565 0.071523294 -0.028370187 0.098827355
0001a0 ea ac 57 3d 23 04 f5 be da ba d7 3d 64 42 53 3e
       0.052655138 -0.4785472 0.10533686 0.20630795
0001b0 d6 fd 05 bd a4 7b b8 bd 2a 7b 78 be 69 c4 8b 3e
       -0.03271278 -0.090079576 -0.24265733 0.27298287
0001c0 08 f4 2a 3e d7 a5 93 be ac 82 be 3d d5 a0 16 3e
       0.16694653 -0.28837463 0.093022674 0.1470979
0001d0 12 c2 b3 be 67 49 c0 3c e7 d7 25 bd 72 eb 2b 3e
       -0.35109 0.023472501 -0.040489104 0.16789034
0001e0 fa 39 30 bc 7c a3 88 be e5 0f 08 3d a4 57 cb 3e
       -0.01075601 -0.2668723 0.033218283 0.39715302
0001f0 84 8e 71 be 74 62 0e 3e a3 01 5e 3e 08 87 1a bd
       -0.23589522 0.13904744 0.21680312 -0.037726432
000200 1d 9b cd be 19 5b d6 3e a5 ac d3 bd dc 09 2b be
       -0.40157405 0.41866377 -0.10335664 -0.1670298
000210 a9 a0 b9 bd c2 f8 9f be 80 3b 09 3e 4a b5 cd bc
       -0.090638466 -0.31244475 0.13401604 -0.02511086
000220 5f 6f a2 bc a6 eb a7 b9 cc 1f 54 3d d9 66 2e bd
       -0.019828497 -0.00032028294 0.051788136 -0.042578552
000230 68 de 33 3d 8b bb d0 3e 13 58 89 be 3c 23 cf ba
       0.043913275 0.40768084 -0.26825008 -0.0015803347
000240 15 ef 94 3e 94 84 53 3d 18 80 1e bd 8b dd 3b 3e
       0.29088655 0.05164011 -0.03869638 0.1834623
000250 24 73 d8 bc d0 70 3e 3c 42 42 e0 3d 92 e0 9f be
       -0.02642209 0.011623576 0.10950138 -0.3122602
000260 3f 2f 99 be 5e 05 6d bf ff 88 87 be 40 b2 72 be
       -0.29918858 -0.92586315 -0.26471707 -0.2370081
000270 55 90 c1 be a7 f6 be bb a3 91 bb bd 31 fb 00 bd
       -0.3780543 -0.005827743 -0.091586374 -0.031489555
000280 27 5e 98 3e 0e c8 81 3e 60 ee 54 3d 4a 12 f7 3a
       0.29759333 0.25347942 0.051985145 0.0018850055
000290 fe 01 85 3d 9a 54 8c be c6 a9 2b bc ce ef 7f bb
       0.064945206 -0.27408296 -0.010477489 -0.0039052847
0002a0 11 e5 9b 3e 41 b9 1a 3b 1e 70 93 3d 60 0d c3 3d
       0.304482 0.0023608955 0.07199119 0.095240355
0002b0 01 4b d1 bd 79 bd 2b 3e a4 b9 b9 bd bb 2a 52 be
       -0.10219384 0.16771497 -0.09068611 -0.20524113
0002c0 7c 3b b4 3d 6c d8 13 3e 44 2a 93 3d 8f 51 ab 3c
       0.08800408 0.14438027 0.07185796 0.020912914
0002d0 4b d6 08 bd 87 70 cd 3c 85 65 0c 3e 06 11 71 bd
       -0.03340749 0.025078071 0.13710602 -0.058854125
0002e0 b7 d7 79 be 69 d3 10 3e 32 31 48 3e f3 ab 9a 3d
       -0.24398695 0.14143147 0.19550017 0.07552328
0002f0 e7 7c 01 3e 31 49 50 3c f3 09 1a bd 9e 9d dd bd
       0.12645303 0.012712763 -0.037607145 -0.10821079
000300 b0 98 55 be f9 14 ad be e3 41 bc bd 66 c9 df 3e
       -0.20859027 -0.33805063 -0.091922544 0.43708342
000310 bb 96 38 3e 0b a2 10 3e 99 70 31 bf 9b e5 b8 bc
       0.18026249 0.14124314 -0.69312435 -0.022570422
000320 05 de c0 3d d7 08 99 bd cd bb 9a 3e 9d ad a2 3d
       0.09417347 -0.07472389 0.30221406 0.0794327
000330 7d 26 99 be 3a c1 98 3e 79 9a eb bc 9a 4c a5 be
       -0.29912177 0.2983492 -0.028760182 -0.32285005
000340 cd 32 eb 3d 03 bd 64 bc db 1e 9a be a6 5a 3e 3e
       0.11484299 -0.0139610795 -0.30101666 0.18589267
000350 92 56 27 3d 2e 85 80 bd 77 bf 81 3e 7a b7 fa 3d
       0.040854044 -0.06275402 0.2534139 0.122420266
000360 1b 89 93 be 21 21 06 be db 34 1f 3e 98 cf dc 3d
       -0.2881554 -0.13098575 0.15547507 0.10781783
000370 08 98 74 be b1 a2 6b be f8 67 95 3e 9e 48 94 bd
       -0.2388612 -0.2301128 0.29180884 -0.07240413
000380 78 d7 02 bc 5f 0b 98 3c 66 84 2b 3e 40 4b 39 3e
       -0.007985942 0.01856011 0.16749725 0.18095112
000390 fc ba 9b be 9c 18 d0 be b6 5b 29 bd b5 53 1b 3f
       -0.30416095 -0.40643775 -0.041347228 0.606746
0003a0 51 df 39 3d 03 02 66 bd 52 d9 95 3e 82 25 71 3e
       0.045378987 -0.056154262 0.29267365 0.23549464
0003b0 18 3f 5e 3e 02 52 af bb 5a 9f 1b 3e 90 a1 d4 bc
       0.21703756 -0.0053503523 0.15197507 -0.025955945
0003c0 09 11 df be 6b ce c0 be 9c 0b 8e be 0a f5 c6 3c
       -0.43567684 -0.37657484 -0.27743232 0.024286766
0003d0 da b0 59 3e 28 cf 83 3d 1d a6 b7 be 95 25 3e bd
       0.2125887 0.06435996 -0.35868922 -0.04642256
0003e0 a8 86 28 3d 32 d9 d2 be 30 eb 94 3e b6 ab 8c 3e
       0.041144043 -0.41181332 0.29085684 0.27474755
0003f0 b8 5d a9 3e 05 d1 9d bd 74 c0 9e 3c e4 32 90 3e
       0.33079314 -0.07705883 0.019378878 0.28163826

sequential_3/conv2d_7/Conv2D i1 [64, 3, 3, 32]
000000 11 0e e4 12 9f f4 0e ab 1d f5 10 dd e3 01 d1 10
       17 14 -28 18 -97 -12 14 -85 29 -11 16 -35 -29 1 -47 16
000010 fa 13 11 06 03 13 f4 0d f3 06 b7 07 bd f7 99 99
       -6 19 17 6 3 19 -12 13 -13 6 -73 7 -67 -9 -103 -103
000020 f6 fc f3 f0 fb f7 fb eb f3 00 fc 16 e3 08 0a 00
       -10 -4 -13 -16 -5 -9 -5 -21 -13 0 -4 22 -29 8 10 0
000030 fd 0d 03 0d ff f4 2a 2a f8 f7 f9 1f 04 eb f4 f3
       -3 13 3 13 -1 -12 42 42 -8 -9 -7 31 4 -21 -12 -13
000040 e3 13 01 fb 14 01 eb f8 f5 28 02 fc d9 0e ef fe
       -29 19 1 -5 20 1 -21 -8 -11 40 2 -4 -39 14 -17 -2
000050 0f ef 01 01 0a f1 15 10 f5 0e 0d f2 05 c9 ff fa
       15 -17 1 1 10 -15 21 16 -11 14 13 -14 5 -55 -1 -6
000060 0d f0 da 01 8f f7 fe b7 ee e4 04 f6 e6 0e c3 09
       13 -16 -38 1 -113 -9 -2 -73 -18 -28 4 -10 -26 14 -61 9
000070 df e7 08 f8 16 05 e9 fa 04 f7 92 d1 a0 01 a6 81
       -33 -25 8 -8 22 5 -23 -6 4 -9 -110 -47 -96 1 -90 -127
000080 05 09 f6 ff eb ee fb e0 f8 01 00 ef ef 02 db 06
       5 9 -10 -1 -21 -18 -5 -32 -8 1 0 -17 -17 2 -37 6
000090 e0 01 0b 06 00 0a 1b 13 fb 04 f4 e7 ee f6 d6 ce
       -32 1 11 6 0 10 27 19 -5 4 -12 -25 -18 -10 -42 -50
0000a0 0e 16 09 02 08 07 01 fa 15 2c fc 03 03 12 ea 08
       14 22 9 2 8 7 1 -6 21 44 -4 3 3 18 -22 8
0000b0 0b f3 fe f9 0b 07 f0 e6 fd 18 28 d2 06 f8 f3 e8
       11 -13 -2 -7 11 7 -16 -26 -3 24 40 -46 6 -8 -13 -24
0000c0 06 16 06 0a e8 06 0d f3 0c 16 fd 0a ee 0e f4 13
       6 22 6 10 -24 6 13 -13 12 22 -3 10 -18 14 -12 19
0000d0 d9 db 15 0e 0d 18 b6 f7 11 16 c7 df c7 03 eb f8
       -39 -37 21 14 13 24 -74 -9 17 22 -57 -33 -57 3 -21 -8
0000e0 18 05 f2 10 ca fe 01 de 0c 09 06 f7 04 18 f3 10
       24 5 -14 16 -54 -2 1 -34 12 9 6 -9 4 24 -13 16
0000f0 f1 ee 15 0b 07 05 eb ea 04 fe d6 d3 ca fb d2 c4
       -15 -18 21 11 7 5 -21 -22 4 -2 -42 -45 -54 -5 -46 -60

sequential_3/dense_3/MatMul i1 [10, 1600] scale=0.01094131 zero_point=0
000000 f8 0b ff fd f0 04 04 11 f8 04 07 06 02 ff 0e 05
       -0.08753048 0.12035441 -0.01094131 -0.032823928 -0.17506096 0.04376524 0.04376524 0.18600227 -0.08753048 0.04376524 0.07658917 0.065647855 0.02188262 -0.01094131 0.15317833 0.05470655
000010 1e fd 02 12 fa 00 f1 fe 0b fa 07 07 0b 03 fc f7
       0.3282393 -0.032823928 0.02188262 0.19694358 -0.065647855 0.0 -0.16411965 -0.02188262 0.12035441 -0.065647855 0.07658917 0.07658917 0.12035441 0.032823928 -0.04376524 -0.09847179
000020 01 05 f8 04 0c f8 11 fd 12 f4 09 01 06 0e fe 07
       0.01094131 0.05470655 -0.08753048 0.04376524 0.13129571 -0.08753048 0.18600227 -0.032823928 0.19694358 -0.13129571 0.09847179 0.01094131 0.065647855 0.15317833 -0.02188262 0.07658917
000030 0a f5 09 03 15 f5 ec 0b 05 fc 0b 06 08 0a 07 0a
       0.1094131 -0.12035441 0.09847179 0.032823928 0.2297675 -0.12035441 -0.2188262 0.12035441 0.05470655 -0.04376524 0.12035441 0.065647855 0.08753048 0.1094131 0.07658917 0.1094131
000040 f6 fd 01 f8 f9 02 05 05 f7 08 06 02 09 07 07 fd
       -0.1094131 -0.032823928 0.01094131 -0.08753048 -0.07658917 0.02188262 0.05470655 0.05470655 -0.09847179 0.08753048 0.065647855 0.02188262 0.09847179 0.07658917 0.07658917 -0.032823928
000050 03 0a 00 0b fd 02 f8 ff fe f4 06 05 09 00 f7 09
       0.032823928 0.1094131 0.0 0.12035441 -0.032823928 0.02188262 -0.08753048 -0.01094131 -0.02188262 -0.13129571 0.065647855 0.05470655 0.09847179 0.0 -0.09847179 0.09847179
000060 0a 0f 02 ff 04 fc 06 00 10 f7 05 03 ff 0b fb fe
       0.1094131 0.16411965 0.02188262 -0.01094131 0.04376524 -0.04376524 0.065647855 0.0 0.17506096 -0.09847179 0.05470655 0.032823928 -0.01094131 0.12035441 -0.05470655 -0.02188262
000070 fd f6 00 ff fe f3 fa 0d 01 f9 0b 04 0c 03 0e 01
       -0.032823928 -0.1094131 0.0 -0.01094131 -0.02188262 -0.14223702 -0.065647855 0.14223702 0.01094131 -0.07658917 0.12035441 0.04376524 0.13129571 0.032823928 0.15317833 0.01094131
000080 f3 fe fe 02 fa 06 08 07 f9 00 02 f8 f9 02 04 f3
       -0.14223702 -0.02188262 -0.02188262 0.02188262 -0.065647855 0.065647855 0.08753048 0.07658917 -0.07658917 0.0 0.02188262 -0.08753048 -0.07658917 0.02188262 0.04376524 -0.14223702
000090 07 02 01 01 fe 03 fe 04 0a f9 f5 03 ff 04 01 f8
       0.07658917 0.02188262 0.01094131 0.01094131 -0.02188262 0.032823928 -0.02188262 0.04376524 0.1094131 -0.07658917 -0.12035441 0.032823928 -0.01094131 0.04376524 0.01094131 -0.08753048
0000a0 ff 07 fd 07 08 f4 fd fc 03 f4 fd f9 ff 0b fe fe
       -0.01094131 0.07658917 -0.032823928 0.07658917 0.08753048 -0.13129571 -0.032823928 -0.04376524 0.032823928 -0.13129571 -0.032823928 -0.07658917 -0.01094131 0.12035441 -0.02188262 -0.02188262
0000b0 03 ff 06 f3 fc f4 03 01 02 f8 04 fb 06 05 04 06
       0.032823928 -0.01094131 0.065647855 -0.14223702 -0.04376524 -0.13129571 0.032823928 0.01094131 0.02188262 -0.08753048 0.04376524 -0.05470655 0.065647855 0.05470655 0.04376524 0.065647855
0000c0 09 fe f8 f6 fd f2 08 08 f5 ff 02 f8 f5 02 02 fa
       0.09847179 -0.02188262 -0.08753048 -0.1094131 -0.032823928 -0.15317833 0.08753048 0.08753048 -0.12035441 -0.01094131 0.02188262 -0.08753048 -0.12035441 0.02188262 0.02188262 -0.065647855
0000d0 09 fd 01 07 07 fe fd fa 02 07 03 fa 04 03 f3 f4
       0.09847179 -0.032823928 0.01094131 0.07658917 0.07658917 -0.02188262 -0.032823928 -0.065647855 0.02188262 0.07658917 0.032823928 -0.065647855 0.04376524 0.032823928 -0.14223702 -0.13129571
0000e0 f8 13 fb 10 f6 fa 06 fc f7 f6 06 f9 f4 fb 01 05
       -0.08753048 0.2078849 -0.05470655 0.17506096 -0.1094131 -0.065647855 0.065647855 -0.04376524 -0.09847179 -0.1094131 0.065647855 -0.07658917 -0.13129571 -0.05470655 0.01094131 0.05470655
0000f0 07 00 f6 f8 07 fc fb 04 02 f5 fc 0f 1c 03 07 00
       0.07658917 0.0 -0.1094131 -0.08753048 0.07658917 -0.04376524 -0.05470655 0.04376524 0.02188262 -0.12035441 -0.04376524 0.16411965 0.30635667 0.032823928 0.07658917 0.0
